models/vggish/checkpoints/vggish_pca_params.npz (npz, 73020 bytes, 2 tensors)

pca_means f8 [128]
-0.41447150707244873 0.024850212037563324 0.1271703988313675 -0.637671709060669 -0.19089028239250183 -0.7033535838127136 -0.19616276025772095 -0.32870951294898987
-0.5925697684288025 -0.45377716422080994 -0.25834256410598755 -0.43537747859954834 -0.6767838001251221 -0.24541263282299042 -0.1790686845779419 0.07085486501455307
0.1216125413775444 0.1419319063425064 -0.2992059290409088 -0.10043437778949738 -0.025974614545702934 -0.1555141806602478 -0.0618678443133831 -0.5646266937255859
0.1394287496805191 0.11293932795524597 0.11847078800201416 0.00903540663421154 -0.1658077836036682 -0.16687044501304626 -0.18371343612670898 0.016495157033205032
-0.07557770609855652 0.08778880536556244 0.14940467476844788 -0.2604990601539612 -0.2867189347743988 -0.5378114581108093 -0.4336153268814087 -0.3005509376525879
0.22205550968647003 -0.4697805643081665 0.04317791759967804 -0.22132863104343414 0.09811589866876602 -0.23955205082893372 0.20581436157226562 0.10967490077018738
-0.2425483912229538 0.26144030690193176 -0.051124949008226395 -0.4364384412765503 -0.671514630317688 -0.5337308645248413 0.18565557897090912 -0.3548819124698639
0.2556954324245453 -0.2326907217502594 -0.11787491291761398 0.08475439995527267 0.10902649164199829 -0.15858599543571472 -0.3323765993118286 -0.45628926157951355
-0.09580561518669128 -0.2510945796966553 -0.2527431845664978 0.11104776710271835 -0.03854530304670334 -0.21311211585998535 0.08448080718517303 -0.03059818595647812
-0.7871039509773254 -0.37095361948013306 0.01858503930270672 -0.2138051837682724 -0.5184730291366577 0.3921843469142914 0.04063832759857178 0.32619890570640564
-0.23977749049663544 0.24711336195468903 -0.5675476789474487 -0.4666241407394409 -0.13457348942756653 0.06701507419347763 -0.05363871529698372 0.008998159319162369
-0.38293683528900146 0.04852424934506416 -0.45681294798851013 0.20660565793514252 -0.1365201771259308 0.5634014010429382 0.08943827450275421 0.23728697001934052
-0.17658241093158722 -0.6229929327964783 -0.40813732147216797 0.025877220556139946 -0.21988625824451447 0.3035529553890228 -0.1657789647579193 0.00943227019160986
-0.6525172591209412 -0.5405132174491882 0.19616998732089996 -0.8409724831581116 0.09114333987236023 -0.22826915979385376 -0.2658442556858063 -0.506198525428772
-0.04128347337245941 -0.23976345360279083 -0.3999318778514862 -0.17124219238758087 -0.19665119051933289 0.08722465485334396 -0.6919140219688416 -4.043883382109925e-05
-0.15157711505889893 0.05555274710059166 -0.34594014286994934 0.020856840535998344 -0.12037986516952515 -0.4577750563621521 0.044977761805057526 -0.02600395306944847
00000000: 0000 0080 b386 dabf 0000 0080 5572 993f
00000010: 0000 00a0 1e47 c03f 0000 0080 ce67 e4bf
00000020: 0000 00c0 176f c8bf 0000 0060 df81 e6bf
00000030: 0000 0080 dc1b c9bf 0000 00a0 9309 d5bf
00000040: 0000 00e0 54f6 e2bf 0000 0060 af0a ddbf
00000050: 0000 0040 af88 d0bf 0000 0080 39dd dbbf
00000060: 0000 0080 36a8 e5bf 0000 0060 ae69 cfbf
00000070: 0000 0000 b9eb c6bf 0000 0060 8b23 b23f
00000080: 0000 00e0 ff21 bf3f 0000 0020 d32a c23f
00000090: 0000 00a0 3026 d3bf 0000 0040 11b6 b9bf
000000a0: 0000 00e0 1699 9abf 0000 0080 e3e7 c3bf
000000b0: 0000 0060 24ad afbf 0000 0000 6c11 e2bf
000000c0: 0000 0020 cdd8 c13f 0000 0080 97e9 bc3f
000000d0: 0000 0000 1a54 be3f 0000 00c0 2781 823f
000000e0: 0000 0080 3039 c5bf 0000 00c0 025c c5bf
000000f0: 0000 0000 ec83 c7bf 0000 0040 1be4 903f
00000100: 0000 0080 0f59 b3bf 0000 00c0 5379 b63f
00000110: 0000 0040 b11f c33f 0000 0040 04ac d0bf
00000120: 0000 0060 9a59 d2bf 0000 0060 c035 e1bf
00000130: 0000 0080 5ac0 dbbf 0000 0000 3a3c d3bf
00000140: 0000 00a0 506c cc3f 0000 0080 e210 debf
00000150: 0000 0080 6a1b a63f 0000 0020 7f54 ccbf
00000160: 0000 00a0 1f1e b93f 0000 0040 a4a9 cebf
00000170: 0000 0000 2058 ca3f 0000 0080 a713 bc3f
00000180: 0000 0060 d30b cfbf 0000 0020 70bb d03f
00000190: 0000 00a0 0c2d aabf 0000 0080 9bee dbbf
000001a0: 0000 0040 0c7d e5bf 0000 00c0 5214 e1bf
000001b0: 0000 00e0 8fc3 c73f 0000 00a0 62b6 d6bf
000001c0: 0000 0060 505d d03f 0000 0040 cfc8 cdbf
000001d0: 0000 00e0 0c2d bebf 0000 00e0 76b2 b53f
000001e0: 0000 0000 29e9 bb3f 0000 00c0 8b4c c4bf
000001f0: 0000 0080 a845 d5bf 0000 00e0 d733 ddbf
00000200: 0000 0080 b786 b8bf 0000 0000 ef11 d0bf
00000210: 0000 00c0 f12c d0bf 0000 0060 a06d bc3f
00000220: 0000 00c0 35bc a3bf 0000 0000 4247 cbbf
00000230: 0000 00c0 88a0 b53f 0000 0080 2155 9fbf
00000240: 0000 00a0 f42f e9bf 0000 0040 b4bd d7bf
00000250: 0000 00e0 f407 933f 0000 00e0 f75d cbbf
00000260: 0000 00c0 5497 e0bf 0000 0060 8c19 d93f
00000270: 0000 0000 8cce a43f 0000 0060 71e0 d43f
00000280: 0000 0060 07b1 cebf 0000 0020 69a1 cf3f
00000290: 0000 00c0 5929 e2bf 0000 0080 2bdd ddbf
000002a0: 0000 0040 b439 c1bf 0000 0060 e627 b13f
000002b0: 0000 00a0 8876 abbf 0000 0080 a06d 823f
000002c0: 0000 0080 0982 d8bf 0000 00a0 2bd8 a83f
000002d0: 0000 0060 6c3c ddbf 0000 00e0 0d72 ca3f
000002e0: 0000 0040 7e79 c1bf 0000 0060 6207 e23f
000002f0: 0000 0040 6de5 b63f 0000 0060 6b5f ce3f
00000300: 0000 00a0 409a c6bf 0000 00e0 8eef e3bf
00000310: 0000 0000 ec1e dabf 0000 00e0 8e7f 9a3f
00000320: 0000 00a0 3b25 ccbf 0000 0060 696d d33f
00000330: 0000 00c0 3e38 c5bf 0000 00e0 3951 833f
00000340: 0000 00e0 6be1 e4bf 0000 0060 e24b e1bf
00000350: 0000 0020 191c c93f 0000 0020 3fe9 eabf
00000360: 0000 0080 2b55 b73f 0000 0080 ec37 cdbf
00000370: 0000 00a0 9703 d1bf 0000 0040 c732 e0bf
00000380: 0000 0080 1b23 a5bf 0000 00a0 91b0 cebf
00000390: 0000 00e0 7b98 d9bf 0000 00a0 43eb c5bf
000003a0: 0000 00c0 dd2b c9bf 0000 00e0 5a54 b63f
000003b0: 0000 00e0 2824 e6bf 0000 00c0 9b33 05bf
000003c0: 0000 0000 e166 c3bf 0000 00e0 6871 ac3f
000003d0: 0000 0020 e223 d6bf 0000 00e0 7e5b 953f
000003e0: 0000 0000 37d1 bebf 0000 00c0 2f4c ddbf
000003f0: 0000 0040 5307 a73f 0000 00c0 c7a0 9abf

pca_eigen_vectors f8 [128, 128]
-0.07345442473888397 0.004233619198203087 0.02232433296740055 0.07667682319879532 0.016231732442975044 0.005823216866701841 0.05682075768709183 0.05792975053191185
0.07749626785516739 -0.015189745463430882 0.13560687005519867 0.01929405890405178 0.0629357099533081 0.0183140579611063 -0.018427802249789238 0.05390990525484085
0.01869852840900421 0.01246844232082367 -0.020954886451363564 -0.042763885110616684 -0.008386456407606602 -0.03717736899852753 0.02111988328397274 -0.055031489580869675
0.01498336996883154 0.007352382875978947 0.010442476719617844 -0.0019274428486824036 0.027168679982423782 0.015412322245538235 -0.0037195426411926746 0.013224945403635502
0.0245323795825243 -0.00833766721189022 -0.03124546818435192 -0.03135932236909866 0.08293624222278595 -0.010069132782518864 0.04932995140552521 -0.021572882309556007
0.01641240529716015 -0.01986827328801155 0.01146288774907589 0.017965007573366165 -0.017728382721543312 -0.025853538885712624 0.008914059959352016 0.006818968802690506
-0.03615695238113403 -0.018835464492440224 0.03286038711667061 -0.0016563605749979615 -0.06468609720468521 0.09771639853715897 0.003845701226964593 -0.02707953192293644
0.013401464559137821 0.10378856956958771 0.021749043837189674 -0.000708776293322444 0.01885167509317398 0.05378599092364311 0.07383599132299423 0.050305988639593124
-0.0057125212624669075 0.007152257952839136 0.03808581084012985 -0.07348105311393738 0.06100355461239815 -0.031991008669137955 0.04012773558497429 0.038534410297870636
0.13029275834560394 0.001854647183790803 0.01974734105169773 0.011738574132323265 -0.04867203161120415 0.02459103800356388 -0.025408722460269928 0.061753544956445694
-0.05241519957780838 0.025239402428269386 0.14066828787326813 -0.04953518137335777 0.027872757986187935 0.03283361718058586 0.05818575620651245 0.02633584477007389
-0.039667800068855286 0.014709285460412502 0.060201629996299744 0.0007037469185888767 0.029788630083203316 0.033105287700891495 0.03313655033707619 0.0070846970193088055
0.017048263922333717 0.093264639377594 0.09945382177829742 -0.03327863663434982 0.019883498549461365 0.019854281097650528 0.018299447372555733 -0.01278290431946516
-0.04990903288125992 -0.049166806042194366 0.004308136645704508 -0.019992336630821228 0.010769004933536053 -0.024440301582217216 0.02020086720585823 0.025584105402231216
0.009506626054644585 0.017592409625649452 0.09010215103626251 0.0405992716550827 0.0043352446518838406 0.0009026005864143372 0.1408585011959076 -0.04151570796966553
0.02176053076982498 0.004499977920204401 -0.02757091633975506 0.020066620782017708 0.028697846457362175 -0.07975316047668457 -0.0015644519589841366 0.040260519832372665
-0.10807447880506516 0.0193349439650774 -0.02345692180097103 -0.066971056163311 -0.08602462708950043 -0.13589313626289368 0.01311163417994976 -0.07905228435993195
-0.05710999295115471 -0.06849858909845352 0.061372432857751846 0.026916954666376114 -0.06529225409030914 -0.03437446802854538 -0.005801578518003225 0.03628433495759964
0.03679244965314865 0.0049889604561030865 -0.05734965577721596 -0.014513762667775154 -0.040792956948280334 0.0524807870388031 -0.001174706732854247 -0.10216712951660156
-0.01842060126364231 0.0004941049846820533 0.0012308391742408276 0.017546992748975754 0.0028434342239052057 0.02452785149216652 0.0020590845961123705 -0.01953808404505253
-0.02748573198914528 -0.08096905797719955 -0.04209371283650398 -0.03348350524902344 0.03755476698279381 -0.10061061382293701 -0.0028179213404655457 -0.011401145718991756
-0.011125603690743446 -0.04619623348116875 0.014438345097005367 0.009724543429911137 -0.007606855593621731 -0.023848524317145348 -0.05803868547081947 -0.04839944466948509
-0.11261601001024246 -0.019292375072836876 -0.017677411437034607 -0.023818928748369217 -0.1084083542227745 -0.06638465821743011 -0.011620215140283108 -0.04066130146384239
-0.04301873594522476 0.014883453957736492 -0.06919021904468536 0.052922531962394714 -0.08822718262672424 -0.03561199828982353 -0.062277551740407944 -0.018046900629997253
-0.04813544452190399 -0.011495374143123627 0.0032633021473884583 -0.06421927362680435 0.006245902273803949 -0.07977409660816193 0.0019618691876530647 -0.05494914948940277
-0.06659237295389175 -0.12034843116998672 -0.00037034376873634756 -0.024797473102808 -0.08847421407699585 -0.022224007174372673 -0.06554306298494339 0.01842949166893959
-0.04336508736014366 -0.014892596751451492 -0.07472459971904755 -0.06885149329900742 -0.08459115028381348 -0.008325244300067425 0.034348566085100174 -0.006222631316632032
-0.01137695461511612 0.017087139189243317 -0.04537881165742874 -0.02651774324476719 -0.003163329092785716 0.0424041748046875 -0.04399389401078224 -0.01416606456041336
-0.026112781837582588 -0.05549033731222153 -0.02986731566488743 -0.03248611092567444 -0.0249825119972229 -0.011324054561555386 -0.05649122595787048 -0.057097144424915314
-0.11885464191436768 -0.07504954189062119 -0.01010096538811922 -0.12951530516147614 -0.045145705342292786 -0.05117321014404297 -0.062029074877500534 -0.13283272087574005
-0.04464806243777275 0.02905340865254402 -0.010448914021253586 -0.037410952150821686 0.047942548990249634 -0.04629926010966301 -0.07193224132061005 -0.035412028431892395
-0.007080523297190666 0.04716341197490692 -0.03424970060586929 -0.04940308630466461 -0.038566507399082184 -0.09499650448560715 -0.0254838764667511 0.015662794932723045
00000000: 0000 00c0 e8cd b2bf 0000 0080 4557 713f
00000010: 0000 00a0 30dc 963f 0000 00a0 17a1 b33f
00000020: 0000 0020 0d9f 903f 0000 00e0 15da 773f
00000030: 0000 0040 9c17 ad3f 0000 00e0 f7a8 ad3f
00000040: 0000 00a0 cbd6 b33f 0000 0020 cd1b 8fbf
00000050: 0000 00e0 905b c13f 0000 0060 d2c1 933f
00000060: 0000 0000 8e1c b03f 0000 00a0 ebc0 923f
00000070: 0000 00e0 bcde 92bf 0000 0040 149a ab3f
00000080: 0000 0000 b525 933f 0000 0000 0e89 893f
00000090: 0000 00a0 3275 95bf 0000 00e0 25e5 a5bf
000000a0: 0000 0020 eb2c 81bf 0000 0080 e908 a3bf
000000b0: 0000 0060 73a0 953f 0000 0060 162d acbf
000000c0: 0000 00e0 99af 8e3f 0000 0040 881d 7e3f
000000d0: 0000 0080 dd62 853f 0000 0000 4894 5fbf
000000e0: 0000 0040 1bd2 9b3f 0000 00e0 7e90 8f3f
000000f0: 0000 0040 7278 6ebf 0000 0020 ae15 8b3f
00000100: 0000 0020 041f 993f 0000 00c0 5613 81bf
00000110: 0000 00e0 cffe 9fbf 0000 0040 540e a0bf
00000120: 0000 0040 4f3b b53f 0000 0020 209f 84bf
00000130: 0000 0080 c641 a93f 0000 00a0 3317 96bf
00000140: 0000 00e0 69ce 903f 0000 0040 5958 94bf
00000150: 0000 00c0 da79 873f 0000 0040 6b65 923f
00000160: 0000 00a0 6327 92bf 0000 00a0 5979 9abf
00000170: 0000 00e0 8841 823f 0000 0000 35ee 7b3f
00000180: 0000 0000 2a83 a2bf 0000 00a0 9a49 93bf
00000190: 0000 00a0 13d3 a03f 0000 00a0 4723 5bbf
000001a0: 0000 00a0 448f b0bf 0000 0020 f103 b93f
000001b0: 0000 0020 0581 6f3f 0000 00a0 bcba 9bbf
000001c0: 0000 0020 3a72 8b3f 0000 0040 e391 ba3f
000001d0: 0000 00a0 6145 963f 0000 0080 a539 47bf
000001e0: 0000 0080 da4d 933f 0000 0060 d689 ab3f
000001f0: 0000 0060 eae6 b23f 0000 00e0 b4c1 a93f
00000200: 0000 0040 0366 77bf 0000 00a0 af4b 7d3f
00000210: 0000 00c0 fb7f a33f 0000 0080 a7cf b2bf
00000220: 0000 00a0 db3b af3f 0000 0020 2061 a0bf
00000230: 0000 0060 9f8b a43f 0000 0040 c8ba a33f
00000240: 0000 00e0 6ead c03f 0000 0040 f462 5e3f
00000250: 0000 00a0 a538 943f 0000 00c0 640a 883f
00000260: 0000 0060 8aeb a8bf 0000 00a0 642e 993f
00000270: 0000 0080 be04 9abf 0000 0020 299e af3f
00000280: 0000 0040 2ad6 aabf 0000 00a0 5bd8 993f
00000290: 0000 0020 6b01 c23f 0000 00e0 ac5c a9bf
000002a0: 0000 0020 ad8a 9c3f 0000 0060 91cf a03f
000002b0: 0000 0000 86ca ad3f 0000 00a0 c8f7 9a3f
000002c0: 0000 0080 564f a4bf 0000 00e0 e61f 8e3f
000002d0: 0000 0080 bfd2 ae3f 0000 0000 750f 473f
000002e0: 0000 0020 e980 9e3f 0000 0020 2df3 a03f
000002f0: 0000 0020 46f7 a03f 0000 00e0 d704 7d3f
00000300: 0000 00a0 1975 913f 0000 0000 31e0 b73f
00000310: 0000 0040 ce75 b93f 0000 00c0 e509 a1bf
00000320: 0000 0000 575c 943f 0000 0040 ae54 943f
00000330: 0000 0020 17bd 923f 0000 0060 ec2d 8abf
00000340: 0000 0040 ad8d a9bf 0000 0040 642c a9bf
00000350: 0000 00a0 68a5 713f 0000 0000 df78 94bf
00000360: 0000 0060 0f0e 863f 0000 00e0 e006 99bf
00000370: 0000 0040 89af 943f 0000 0040 b832 9a3f
00000380: 0000 00c0 3578 833f 0000 00a0 be03 923f
00000390: 0000 0040 ef10 b73f 0000 0080 6dc9 a43f
000003a0: 0000 0060 d5c1 713f 0000 0000 9093 4d3f
000003b0: 0000 00c0 a607 c23f 0000 0000 8c41 a5bf
000003c0: 0000 0080 6448 963f 0000 00a0 916e 723f
000003d0: 0000 00e0 8c3b 9cbf 0000 0020 588c 943f
000003e0: 0000 00e0 f762 9d3f 0000 0000 b46a b4bf
000003f0: 0000 0080 c9a1 59bf 0000 00e0 069d a43f
00000400: 0000 00e0 c4aa bbbf 0000 0020 8acc 933f
00000410: 0000 0060 1705 98bf 0000 00e0 0325 b1bf
00000420: 0000 00c0 b505 b6bf 0000 0040 f264 c1bf
00000430: 0000 00c0 45da 8a3f 0000 0040 c53c b4bf
00000440: 0000 0060 853d adbf 0000 00a0 1f89 b1bf
00000450: 0000 0020 356c af3f 0000 0040 1e90 9b3f
00000460: 0000 0040 feb6 b0bf 0000 00c0 8799 a1bf
00000470: 0000 0060 65c3 77bf 0000 0040 dc93 a23f
00000480: 0000 00c0 75d6 a23f 0000 00e0 4d6f 743f
00000490: 0000 0020 ef5c adbf 0000 0040 64b9 8dbf
000004a0: 0000 0080 d0e2 a4bf 0000 0000 c3de aa3f
000004b0: 0000 00c0 133f 53bf 0000 0000 a027 babf
000004c0: 0000 00a0 d9dc 92bf 0000 0060 da30 403f
000004d0: 0000 0080 832a 543f 0000 00c0 d6f7 913f
000004e0: 0000 0020 1d4b 673f 0000 0040 d41d 993f
000004f0: 0000 00a0 36de 603f 0000 00a0 ca01 94bf
00000500: 0000 0040 3825 9cbf 0000 0060 63ba b4bf
00000510: 0000 00a0 4e8d a5bf 0000 0000 c024 a1bf
00000520: 0000 00e0 603a a33f 0000 0000 9ec1 b9bf
00000530: 0000 0000 9c15 67bf 0000 00e0 7b59 87bf
00000540: 0000 0040 05c9 86bf 0000 0060 08a7 a7bf
00000550: 0000 00e0 d991 8d3f 0000 0020 76ea 833f
00000560: 0000 00c0 5d28 7fbf 0000 0060 bf6b 98bf
00000570: 0000 0020 3fb7 adbf 0000 00e0 cfc7 a8bf
00000580: 0000 0020 67d4 bcbf 0000 0060 61c1 93bf
00000590: 0000 0000 071a 92bf 0000 0040 fd63 98bf
000005a0: 0000 0060 a6c0 bbbf 0000 00c0 95fe b0bf
000005b0: 0000 00e0 56cc 87bf 0000 00e0 8ed1 a4bf
000005c0: 0000 0040 8d06 a6bf 0000 0060 377b 8e3f
000005d0: 0000 0040 73b6 b1bf 0000 0080 a918 ab3f
000005e0: 0000 0080 0e96 b6bf 0000 0060 bc3b a2bf
000005f0: 0000 00e0 d7e2 afbf 0000 0000 e37a 92bf
00000600: 0000 0080 35a5 a8bf 0000 0000 e38a 87bf
00000610: 0000 0000 a4bb 6a3f 0000 00a0 ac70 b0bf
00000620: 0000 00a0 4d95 793f 0000 0040 136c b4bf
00000630: 0000 0080 5612 603f 0000 0080 4b22 acbf
00000640: 0000 00a0 320c b1bf 0000 00a0 27cf bebf
00000650: 0000 0060 5645 38bf 0000 0040 8264 99bf
00000660: 0000 0000 3fa6 b6bf 0000 00e0 e3c1 96bf
00000670: 0000 0020 6ec7 b0bf 0000 0040 2edf 923f
00000680: 0000 00e0 f233 a6bf 0000 0080 0280 8ebf
00000690: 0000 00c0 2621 b3bf 0000 0060 40a0 b1bf
000006a0: 0000 0000 c4a7 b5bf 0000 0060 d30c 81bf
000006b0: 0000 00a0 2296 a13f 0000 00e0 e67c 79bf
000006c0: 0000 0000 cd4c 87bf 0000 0080 4a7f 913f
000006d0: 0000 0040 e43b a7bf 0000 00a0 7727 9bbf
000006e0: 0000 0060 fbe9 69bf 0000 0000 00b6 a53f
000006f0: 0000 0020 5e86 a6bf 0000 0000 1903 8dbf
00000700: 0000 0020 4fbd 9abf 0000 00c0 3a69 acbf
00000710: 0000 00a0 8995 9ebf 0000 0000 05a2 a0bf
00000720: 0000 0000 0495 99bf 0000 00e0 1031 87bf
00000730: 0000 0000 6bec acbf 0000 0040 d63b adbf
00000740: 0000 0000 426d bebf 0000 0060 7236 b3bf
00000750: 0000 00a0 d0af 84bf 0000 0020 f593 c0bf
00000760: 0000 0080 561d a7bf 0000 0000 6033 aabf
00000770: 0000 0060 46c2 afbf 0000 00a0 a900 c1bf
00000780: 0000 0060 1cdc a6bf 0000 0040 2dc0 9d3f
00000790: 0000 0080 3d66 85bf 0000 0040 8727 a3bf
000007a0: 0000 0000 ed8b a83f 0000 0060 89b4 a7bf
000007b0: 0000 00c0 266a b2bf 0000 0080 8621 a2bf
000007c0: 0000 0080 7700 7dbf 0000 0080 cd25 a83f
000007d0: 0000 0040 2d89 a1bf 0000 0080 5c4b a9bf
000007e0: 0000 0040 fdbe a3bf 0000 00e0 b051 b8bf
000007f0: 0000 0000 7218 9abf 0000 0060 e809 903f
